Wireless-traffic-fingerprint-recognition-of-mobile-APP-based-on-simple-CNN/Model/example_model.pth (torch, 212260 bytes, 8 tensors)

conv1.weight f4 [16, 2, 3]
000000 a1 93 d8 3e 98 3d e0 bd ab 3d 6d bd 57 10 f2 bd
       0.42300132 -0.10949248 -0.05792014 -0.11819523
000010 01 a5 81 3e ec 24 47 be b5 d5 7f 3e 21 d6 de be
       0.253212 -0.19447678 0.24983867 -0.43522742
000020 40 6b af 3d eb 03 64 be 2b b8 69 bc cf 08 23 3e
       0.08565378 -0.2226712 -0.0142651005 0.15921329
000030 45 12 b2 be 9e a0 be 3e 6e 44 52 be 38 41 9a bd
       -0.34779564 0.37231916 -0.20533916 -0.07531971
000040 3f b6 f3 bd 48 9d 73 3e 92 9f 98 be fe 82 9d 3e
       -0.11899995 0.23790467 -0.29809242 0.30764002
000050 82 40 d4 3e c0 48 de bd 1e e3 81 be 58 9f 81 be
       0.41455466 -0.1085372 -0.2536859 -0.25316882
000060 62 b5 1d 3d 53 16 c5 3d 81 c6 c9 be f3 c5 0b be
       0.03850306 0.09623399 -0.3940926 -0.1364973
000070 10 91 0c 3e bf b3 e0 3d 62 b8 c2 3d e9 76 89 be
       0.13727212 0.10971784 0.095078245 -0.26848534
000080 88 fd d3 3d 9c fc ed be 89 e0 78 3e 8b 88 72 be
       0.103510916 -0.46481788 0.24304403 -0.236849
000090 70 32 e1 bd a5 99 6f 3d 8b b6 9b bd d6 7c f4 be
       -0.10995948 0.058496136 -0.07603177 -0.47751492
0000a0 b3 18 63 3e 50 5e 91 3e 43 24 ff be 53 84 6e 3e
       0.22177391 0.28392267 -0.49832353 0.23292665
0000b0 52 69 84 be 02 57 f6 be 88 29 37 3d 71 22 87 3e
       -0.25861603 -0.48113257 0.04471734 0.26393464
0000c0 1c 4c a8 3d 78 a7 92 3e 99 8c fc bd 75 8e 46 be
       0.08217642 0.28643394 -0.123315044 -0.1939028
0000d0 2d 69 fb bc a4 f2 e1 be 66 a1 84 3e 43 55 d6 bd
       -0.0306898 -0.44130433 0.25904387 -0.10465481
0000e0 dd d6 cb be ae 70 cc 3e de ff 08 be 84 76 84 bd
       -0.39812365 0.39929718 -0.13378856 -0.064679176
0000f0 aa 43 a6 be 2c 7f bc 3e 4e b0 1d be eb b9 1d be
       -0.324735 0.36815774 -0.15399286 -0.15402953
000100 8f 02 09 3c d3 50 e0 3d 0d 15 9c be 8c 8d c7 3e
       0.008362426 0.10952916 -0.3048481 0.3897518
000110 a4 11 ba 3e 9b 8f 8f 3d 3d 68 2d 3e 5f 3b f1 bd
       0.36341584 0.070098124 0.16934295 -0.11778902
000120 d5 11 85 3e ed 39 9b 3e 15 42 a4 3e cd 51 5e 3e
       0.25990167 0.3031763 0.32081667 0.21710892
000130 3c 21 cf 3d a9 85 b5 be d0 44 8c 3e 53 38 df be
       0.10113761 -0.35453537 0.2739625 -0.4359766
000140 cb 81 c3 3d 9a d5 0d be 9e 6b 63 3e 79 45 06 be
       0.095462404 -0.13851014 0.22209021 -0.13112439
000150 4a 4d b6 be a3 5f a3 be af eb e3 bd 04 aa a0 be
       -0.35605842 -0.31908903 -0.111289375 -0.31379712
000160 36 41 de bd 55 41 ac bd d4 14 eb 3c 06 79 dd bd
       -0.10852282 -0.084108986 0.028696455 -0.10814099
000170 04 c3 db 3d c9 10 3d be 2b a2 62 be 50 51 c2 3e
       0.10730556 -0.18463434 -0.22132175 0.37952662

conv1.bias f4 [16]
000000 2e 46 df 3d 59 02 22 bd 34 c5 ea 3e 05 51 07 3f
       0.109020576 -0.03955302 0.4585358 0.52858
000010 bc 2f b1 be 5d f2 87 3e 50 39 62 3b b3 3a 5b 3e
       -0.3460673 0.26552096 0.0034519024 0.2140911
000020 2a 6a 34 bc cc a1 b5 be 65 36 09 3f 97 29 7b bc
       -0.01101164 -0.35475004 0.53598624 -0.01532974
000030 ef 7f 34 3e 98 b2 bf 3c 0a b8 95 3e 1f b8 ae 3b
       0.17626928 0.02340059 0.29241973 0.0053320075

conv2.weight f4 [32, 16, 3]
000000 95 e1 bd bd e4 d4 85 3d a0 18 16 be d8 b3 8d bc
       -0.09271542 0.06534746 -0.14657831 -0.01729767
000010 de bc 8d 3d c2 1c d0 bc 1c 3b 05 bd 14 29 da bd
       0.06920789 -0.025404338 -0.032527074 -0.10652366
000020 53 79 b6 3d 1b 4d 28 be e4 a9 4c 3d 89 1b 39 bc
       0.089098595 -0.16435663 0.049966708 -0.011298069
000030 e6 63 8b bd dd e2 b0 bd 6d 8c b6 3d f9 02 1c bc
       -0.068061635 -0.08637021 0.08913503 -0.009522193
000040 ad ad b9 3d 24 1e d1 bd 60 5e 11 be a9 d0 a1 bc
       0.09066329 -0.10210827 -0.14196157 -0.019752817
000050 9e 7d 20 bd 7e a8 45 3d 01 01 3b be de 6d bb 3d
       -0.039182298 0.04825639 -0.18262102 0.09151815
000060 36 10 ec 3d 93 1d e0 bd da f0 38 3d 28 a3 ca bd
       0.115265295 -0.10943141 0.04515157 -0.09894401
000070 49 cd 91 3d 15 11 3d 3d 0e 6b 13 be f2 35 c7 bd
       0.07119233 0.04615887 -0.14396307 -0.09727086
000080 36 e4 b1 3d b7 c2 cb 3d 79 56 84 3d 13 de 52 3d
       0.08686106 0.09949248 0.06461806 0.051481318
000090 70 8a 2f be 32 d5 d6 bd a4 0d f1 3d 7e 11 49 3d
       -0.17142653 -0.104898825 0.1177018 0.049088947
0000a0 78 0f d2 bd 5f 29 44 3d 88 42 59 be 30 97 1e bd
       -0.10256857 0.047891017 -0.21216786 -0.038718402
0000b0 91 de 16 be 07 04 cd 3d 03 53 a2 3d 4c 78 f9 bd
       -0.1473334 0.10010534 0.079259895 -0.12181148
0000c0 8a 3b 08 3e 72 02 7b 3c 62 34 9b bd 26 a4 58 3d
       0.13303962 0.015320407 -0.075783506 0.05289092
0000d0 da fa 27 3e cd 9a 62 be 98 10 98 bd 0e 1f 64 3d
       0.16404286 -0.22129364 -0.0742504 0.05569368
0000e0 65 f1 1e 3e 4c 5e 58 bc 7d 89 08 3d 7b fe 16 be
       0.15521772 -0.013206076 0.033334244 -0.14745514
0000f0 d8 a6 a3 3d c9 09 44 bd 69 ef 0a be f8 0d a9 3d
       0.07990807 -0.047860894 -0.1356789 0.082546175
000100 11 eb dd 3d 36 f9 31 3d 97 93 03 be d3 b5 21 3e
       0.10835851 0.043450557 -0.1284927 0.15792017
000110 30 2a 7a bd f1 3b c5 bd 28 f4 31 3e a9 75 1d 3e
       -0.06107539 -0.096305735 0.17378294 0.15376915
000120 5e 47 df bd 44 42 28 bd 12 99 1d be 19 92 e9 3d
       -0.10902284 -0.04107882 -0.15390423 0.11404819
000130 44 f2 47 bd fc d1 53 bd 23 04 b2 3d ca ba 0e 3d
       -0.048815027 -0.05171393 0.08692195 0.034846105
000140 31 94 c8 3d 85 ba ca 3d ec 97 9c bd 44 24 a0 bd
       0.0979389 0.09898857 -0.07646164 -0.07819417
000150 91 db c0 bd 05 78 a6 bc 78 87 c8 3d 9e 00 c8 3d
       -0.09416879 -0.020320902 0.097914636 0.09765743
000160 ad c4 ea bc ac 2a 26 be e6 51 48 3e af c5 87 3e
       -0.028658235 -0.16227216 0.19562492 0.26518008
000170 12 99 20 3e 54 1f c0 bd df 78 e3 3d 53 77 36 be
       0.15683392 -0.09380975 0.11107039 -0.17818956
000180 6b 79 dc bd 17 a3 16 3e e5 39 b2 3c 4c c0 1d be
       -0.10765346 0.14710651 0.021756122 -0.15405387
000190 04 41 18 3d bc 23 a6 3d 07 de e9 bb b0 23 b7 bd
       0.03717138 0.081122845 -0.0071370634 -0.08942354
0001a0 4f 3d f8 bd f4 c3 1c bb 61 05 8b bd 68 24 21 be
       -0.12121069 -0.0023920508 -0.06788135 -0.15736544
0001b0 65 95 20 be f2 89 70 bc aa 86 17 be f6 31 22 bd
       -0.1568199 -0.014681326 -0.14797464 -0.039598428
0001c0 23 76 89 bd a5 e3 d5 3c 20 c0 6e bd 7e fd c0 bc
       -0.06711986 0.026109526 -0.058288693 -0.023558374
0001d0 de 93 cf 3c 73 56 1d bd cb db 03 be 28 77 c8 3b
       0.025339063 -0.038412523 -0.12876813 0.00611772
0001e0 a2 ff 38 bd 33 25 19 bd a2 09 e2 bd e3 62 5c 3d
       -0.045165665 -0.03738899 -0.110369936 0.053805243
0001f0 2a 82 8a 3c 44 5e 87 3d d2 cc a0 bb e6 50 b5 bd
       0.01690777 0.066097766 -0.004907229 -0.08853321
000200 50 a9 86 3d dd 1d fa 3d 8f 2d bc 3d 3c 37 c1 bd
       0.065752625 0.12212727 0.09188377 -0.09434363
000210 4f 69 83 3d 9b 14 00 3e 65 0b c2 3d 4f 8c 02 be
       0.064165704 0.1250786 0.094748296 -0.12748836
000220 7a 85 4b be 1e 1e 44 bd 0d e4 5f 3e af 82 0d 3e
       -0.19875136 -0.047880284 0.21864338 0.13819383
000230 6d 74 26 3e f0 10 1b be b7 98 77 bd bc 5f 55 be
       0.1625535 -0.1514318 -0.060448375 -0.20837301
000240 ca 3c 2f bd 5b c5 6a 3d a0 dc 25 be aa cd ed bc
       -0.042782582 0.05731712 -0.16197443 -0.029028732
000250 29 71 46 bb ad a3 09 bd b0 0c e5 3c 05 fc bd bd
       -0.003027985 -0.03360336 0.027960151 -0.092765845
000260 4e 5d 96 3d 9a 5e 08 3d f9 d6 0a be 11 f4 2c be
       0.07342015 0.033293344 -0.13558568 -0.16889979
000270 9f 12 f3 3d fd 83 8f 3d 81 2a 4e bc dc c7 f9 bc
       0.11868786 0.07007597 -0.012583376 -0.030490808
000280 cd 50 ac bd 63 b2 eb bd e2 39 0d 3d 45 fc 3c 3e
       -0.08413849 -0.11508634 0.03447903 0.18455608
000290 4d dd 53 be d5 99 1a 3e 5a 66 cf 3d b6 b8 93 3d
       -0.20689888 0.15097745 0.10126944 0.07212965
0002a0 27 98 52 bd b4 d5 76 3d a8 3c b8 3d c3 71 a4 3d
       -0.051414635 0.060262397 0.08995944 0.08029511
0002b0 7f 08 50 3d 18 d8 cd 3d 9f 9d a8 3d de 36 a7 bd
       0.050789353 0.10050982 0.08233189 -0.08164762
0002c0 28 2a 48 bd 31 e4 a5 bd 09 17 97 bd d6 2d 1b 3e
       -0.04886833 -0.08100165 -0.073774405 0.15154204
0002d0 a6 ee cb bd 94 0a 98 bd 42 fe 93 bd 31 be 0e bd
       -0.09957628 -0.074238926 -0.0722623 -0.03484935
0002e0 87 7b 7c bd f7 d4 04 bd cb 5d 13 3e 71 77 bf bd
       -0.061641242 -0.03242966 0.14391248 -0.093489535
0002f0 3f 35 e6 3c 7e 47 bc 3d 89 a3 4a 3c 83 e6 9b 3d
       0.028101562 0.091933236 0.012368091 0.07612326
000300 7f 08 87 bd f2 e7 09 3e 08 af d6 bd e7 f5 c7 3c
       -0.065934174 0.13467386 -0.10482603 0.024409248
000310 16 3b ee bc fa 3a 86 3d cb 67 03 3e fb 1d 9e 3d
       -0.029080909 0.06554218 0.12832563 0.07720562
000320 8a a4 b6 bd 55 ea 65 bc 77 90 24 3d b5 86 de 3b
       -0.08918102 -0.01403292 0.040176835 0.0067909607
000330 d8 f3 86 3d 5e 0b 29 bb 23 19 b9 3c 7f ed c7 bc
       0.06589478 -0.002579413 0.022594994 -0.02440524
000340 8f 5a 9d 3d 96 e5 4b 3d d3 c2 e8 3d a9 66 16 3e
       0.07683288 0.049779497 0.11365285 0.14687599
000350 a6 03 85 3d 9a ae 2c bc 34 fe 39 bd 0c 51 43 3b
       0.064948365 -0.010539675 -0.045408443 0.0029802946
000360 34 b4 2f be 85 8b 37 3e 90 91 21 3e 70 85 ae bd
       -0.17158586 0.17924316 0.15778184 -0.08521545
000370 1a 72 f8 3c 5b 9d f7 bd c3 57 25 3c 05 6d 74 3c
       0.030327845 -0.1209056 0.010091725 0.01491857
000380 db b1 c4 bd 6a 8f 23 3e 81 64 5b 3d d5 bc e5 bd
       -0.09604236 0.15972677 0.053562645 -0.112176575
000390 d1 56 e8 bd fd 79 98 3d 7f d1 b7 bd b7 6e 09 be
       -0.11344684 0.074451424 -0.08975505 -0.1342114
0003a0 65 8f 1d be c7 7e df bc 00 b9 61 be b0 a3 eb 3d
       -0.15386732 -0.027282132 -0.22043228 0.1150583
0003b0 67 ab 7e 3d 92 37 12 3e f4 e3 06 3e 93 b1 29 be
       0.06217518 0.14279011 0.13172895 -0.16571645
0003c0 04 09 66 3d 2a df 16 be 1e 4a 9b bd 66 06 8c bd
       0.05616094 -0.14733568 -0.07582496 -0.06837158
0003d0 07 ca a5 3d 4f e3 ee 3b 46 25 0d be 8f 30 a1 3d
       0.08095174 0.007290281 -0.1378375 0.0787059
0003e0 96 7d 3e 3d 09 f8 f0 bb 28 b3 10 be 42 15 e3 bd
       0.046506487 -0.007353787 -0.14130843 -0.11088039
0003f0 67 56 0c 3e a2 22 c0 bd c0 80 de 3d a9 12 a3 bc
       0.13704835 -0.09381606 0.10864401 -0.019906359

conv2.bias f4 [32]
000000 27 c7 45 3d 91 2b 1b 3e 6c de 36 3e b7 90 db 3c
       0.04828563 0.15153338 0.17858285 0.026802404
000010 53 7a fc bd 5d 10 b5 bd d2 bd 40 3d 21 fc 76 3e
       -0.12328019 -0.08841012 0.047056027 0.24119617
000020 33 8e 59 3e 5e fb c8 bc e7 63 5a bd 89 46 aa 3d
       0.21245651 -0.024533924 -0.05331793 0.08314235
000030 1f ac 0f 3e 15 b7 15 3e 2b ea 9b bc c3 26 66 3e
       0.14030503 0.14620622 -0.019032558 0.22475724
000040 cb 90 97 3e 24 0c 47 be e6 89 a5 3d 56 76 87 3e
       0.29602656 -0.19438225 0.08082943 0.2645747
000050 77 e2 2f 3d a5 95 0d be 0b 1e 35 be d2 11 9f 3e
       0.042940583 -0.13826616 -0.17687242 0.31068283
000060 bd de d2 bd a8 c1 94 3e d8 3a 8d 3e 4a 96 c2 3c
       -0.1029639 0.29053998 0.27583957 0.023753304
000070 84 aa 25 3e 83 3c 8d 3e a2 8a 0e bd 45 b7 c8 3d
       0.16178328 0.2758523 -0.03480018 0.09800581

fc1.weight f4 [128, 384]
000000 79 30 af 3c ab 9b bc 3c 6f 03 bf bc 24 44 d0 bc
       0.021385418 0.023023447 -0.023317067 -0.025423117
000010 df c1 ec 3b 2c c1 3e 3d f3 2e 10 3d ba e1 18 3d
       0.0072252597 0.04657094 0.035201024 0.037324645
000020 46 e6 0e 3d de 09 0d bc 54 b8 39 3d 21 aa 25 bd
       0.034887575 -0.00860831 0.045341805 -0.04044545
000030 c7 4a 39 3d c4 97 25 bd a6 be 8f bd 08 e2 55 bb
       0.04523733 -0.040427938 -0.07018785 -0.0032635946
000040 e6 d4 bc 3d ed 01 5e 3d 07 79 ae bd 5f 53 f6 bd
       0.09220295 0.054201055 -0.08519178 -0.120276205
000050 d4 7b b8 bd e6 b4 eb bd bc 6b 02 be 4d 77 b6 bd
       -0.09007993 -0.11509113 -0.1273641 -0.089094736
000060 89 f6 a8 bc 8c 81 46 3d 77 33 40 3d e8 fe 4a bd
       -0.02062537 0.04846339 0.04692408 -0.049559504
000070 30 8f 90 bd 4f 68 38 bc 6b 9e 1f bd 03 a1 8f bd
       -0.07058561 -0.011255338 -0.03896944 -0.070131324
000080 94 ed c5 bd 16 95 83 bc e5 9f 12 bc eb 0b 86 bd
       -0.09664455 -0.0160623 -0.008949255 -0.06545242
000090 d7 aa 1c 3d b8 48 c5 3d 73 e7 07 3c bd d6 84 bc
       0.038248863 0.096330106 0.008294928 -0.016215676
0000a0 86 b1 a4 3d 7f db aa bc 7c d5 2a 3d f4 71 92 3c
       0.080416724 -0.020856617 0.0417075 0.017876603
0000b0 39 ab 1b bd 48 d8 d6 bb 00 5b 48 39 b5 ea e8 bc
       -0.038005088 -0.0065565445 0.00019107386 -0.02843223
0000c0 11 5c 8a 3d 09 bc 0a bd 0c fc 4f 3d ca b9 35 bd
       0.067558415 -0.03387073 0.05077748 -0.044366635
0000d0 5e 58 b9 bc 91 46 3c bc 28 34 e5 3b 80 a6 01 3d
       -0.022625145 -0.011491434 0.006994743 0.031652927
0000e0 2e 4e 3a 3d b0 c1 d6 bc 10 88 d7 3c 5a 2a 97 bc
       0.045484714 -0.026215404 0.026309997 -0.018452812
0000f0 a7 fc 53 bc 95 63 c6 bc 78 16 41 bc a5 a0 51 bd
       -0.012938655 -0.024217406 -0.011785142 -0.051178593
000100 77 1e 86 3d f4 3b 09 3d 56 4d 27 3d 0e bc 1b 3d
       0.065487795 0.03350444 0.040845238 0.03802114
000110 c8 e9 58 bc d3 67 26 bd 84 31 15 3d 2a 42 19 3d
       -0.013239332 -0.04062636 0.036424175 0.037416615
000120 8c 28 89 3d 15 e6 c4 3c 6c 3a 7a 3d c2 ff 3b 3d
       0.06697187 0.024035493 0.06109087 0.045898207
000130 dd 2b 64 bd ce 30 aa bd f5 00 e0 bc 70 4f b8 bb
       -0.055705894 -0.0831009 -0.027344206 -0.005624704
000140 83 f9 ab bc 25 e8 da bc 70 5a a1 bc 94 73 38 3d
       -0.020993 -0.026722023 -0.019696444 0.0450321
000150 d3 ef 8e 3d f2 53 15 3d 19 df 3e 3c ca bc bb bc
       0.069793366 0.03645701 0.01164987 -0.02291717
000160 d7 fb 27 3d fb 70 63 3c 11 a0 e5 bd 50 6e 01 bd
       0.041011658 0.013881917 -0.11212171 -0.031599343
000170 0f 01 e0 bd 8f 9e 6b bd 8b d2 c0 bd e5 cf 0a bd
       -0.10937702 -0.05752426 -0.09415158 -0.03388967
000180 71 19 9c 3d 2b d7 c7 3c da ef fb bc 5c b3 4d 3d
       0.0762204 0.024394592 -0.030754019 0.05021988
000190 c6 f1 40 3d a6 4d 8c 3d 88 eb 24 bd 74 bd e7 bd
       0.047105573 0.06850748 -0.040263683 -0.11315432
0001a0 6e b2 ef bd 6e 99 c8 bc 53 66 5e bd de 61 df bd
       -0.11703955 -0.024487223 -0.054296803 -0.109073386
0001b0 57 1a 1b 3d a5 2c 0d 3e b5 ff f2 3c 4d dc 96 bd
       0.037866917 0.13786562 0.029662946 -0.07366238
0001c0 32 78 9a bd 51 a1 46 3d a6 1f 0a bd 98 2a 97 3c
       -0.07542457 0.048493687 -0.03372159 0.018452927
0001d0 00 8c e2 3c 60 a7 1b 3d 84 e4 08 bc 58 fd 40 3c
       0.027654648 0.038001418 -0.008355264 0.011779152
0001e0 a3 33 93 bc c4 81 4d bd 51 ee 7b 3d df 21 11 3a
       -0.017968958 -0.050172582 0.061506573 0.0005536358
0001f0 47 37 28 bd fe e2 ff 3c 60 c5 cb 3a d4 69 93 3c
       -0.04106834 0.031236168 0.0015546493 0.017994799
000200 7d 29 29 bd 25 6b 45 bd db 8c 35 bd bb 4a e1 bc
       -0.041299332 -0.048197884 -0.044323783 -0.027501455
000210 6e 51 fb 3c cd c8 ab bc 7c ca 82 3d 08 46 8c bc
       0.030678477 -0.020969773 0.06386277 -0.017123237
000220 15 cd a5 bd 7d 96 58 bd e0 1f ed bc a4 ab a6 bb
       -0.08095757 -0.05287789 -0.028945863 -0.005086379
000230 8d 3d 9b bc 9f 56 34 bc b6 61 d2 bc 8e 21 be bc
       -0.018950248 -0.01100698 -0.025681358 -0.02320936
000240 88 b8 98 bc 2c bb 64 3d 01 8f 43 bd d2 81 17 bd
       -0.018642679 0.055842564 -0.0477438 -0.03698904
000250 70 cc af bc af 3c 8a bb a9 3f 02 bd ba d5 5c bd
       -0.021459788 -0.00421866 -0.031798992 -0.053914763
000260 a2 7c 28 bd 76 48 3c bd 33 07 89 bc 72 38 86 bd
       -0.041134484 -0.04596754 -0.016727066 -0.06553735
000270 d9 dd 8b 3c f1 30 81 3a 14 1c a2 3d 93 ce 8e 3d
       0.017073559 0.0009856505 0.07915512 0.06972995
000280 3a 48 7c bd ed ad c7 3c 58 24 cb 3c 8c bf 3f bc
       -0.061592318 0.024374926 0.024797603 -0.011703383
000290 00 f1 45 bd 40 55 eb bb d1 40 2d bd 5c 2c 80 bc
       -0.04832554 -0.0071817935 -0.042298142 -0.015646152
0002a0 b9 8b cd bc 0b 60 80 3d 12 f3 09 3d 3b be cc bd
       -0.025091039 0.06268319 0.033679076 -0.09997221
0002b0 6f 06 cd 3c 92 22 a7 3c 96 4b 16 3d 90 d2 9d 3c
       0.025027482 0.020402227 0.036693178 0.019265443
0002c0 5b af 22 bd b9 9f dd bc fd 64 2e bd da 30 08 3d
       -0.039718013 -0.0270537 -0.04257678 0.033249713
0002d0 8f cf 47 bd 64 70 f9 bd db 73 7c 3c 1f de 7e 3d
       -0.048781928 -0.1217964 0.0154084815 0.06222355
0002e0 65 54 87 3d f3 8f 43 3d 64 df b0 bd 64 15 06 bd
       0.06607894 0.047744703 -0.086363584 -0.032735243
0002f0 b1 a7 82 bc ad 95 52 bd b8 11 d8 bd e0 ac a2 bd
       -0.015949102 -0.051412273 -0.105502546 -0.079431295
000300 4e 0e ba 3d 40 6f 7d 3d 02 35 0b bd 6b 7c fa 3b
       0.0908476 0.061873674 -0.0339861 0.0076442263
000310 2a f0 1e bc 75 65 dc bd 1b 2b aa bd 13 29 8c bd
       -0.009700814 -0.10761539 -0.08309003 -0.06843772
000320 79 4b 9e bd c2 02 95 bd 22 8e 0b bd 27 70 a1 bd
       -0.07729239 -0.07275917 -0.034071095 -0.078827195
000330 64 a2 0f bc eb 27 7a 3d fb 2d 80 3c bb b4 39 3d
       -0.008766744 0.061073225 0.015646925 0.045338374
000340 1e b4 d7 bc 5e ed 54 3d 43 17 4c bc 16 23 13 bd
       -0.026331004 0.051984183 -0.012456718 -0.035922132
000350 d7 f4 86 bb 94 84 a6 3c 07 cb 7e bc 54 87 cc 3c
       -0.0041185427 0.02032689 -0.015551335 0.024966873
000360 c5 c0 9c 3d 25 af 68 3c fe ac f4 3c 41 b4 3b bd
       0.07653955 0.014201914 0.029867645 -0.0458262
000370 1b ed 8d bd 08 ad f0 ba d2 41 83 bd fc a0 d4 bd
       -0.0692999 -0.0018362114 -0.064090386 -0.10382268
000380 41 ad af bd 2e 97 42 bd e9 d6 c5 bd f5 8f 17 bd
       -0.085779674 -0.047507457 -0.096601315 -0.037002522
000390 a5 3f 03 be ff 83 a2 3c 90 97 f2 3c b2 d8 ad 3d
       -0.12817247 0.019838331 0.029613286 0.08488597
0003a0 2a 5d b9 3c bf f3 bb bc b0 56 49 bd 90 89 4d bd
       0.022627432 -0.022943376 -0.049154937 -0.050180018
0003b0 79 e9 24 bd ef d5 e9 bd 8f df bc bd 05 fb a3 bd
       -0.04026172 -0.11417758 -0.09222328 -0.080068626
0003c0 4c 36 e2 3d 30 0c 7e bc 75 31 32 3d 9f b2 46 3c
       0.110455126 -0.015505835 0.043504197 0.0121275475
0003d0 45 56 87 bc 3a f4 94 bd f0 21 e4 bd 5c ae 8c bd
       -0.016520629 -0.07273145 -0.111392856 -0.06869194
0003e0 f7 cd ee bd 5c 39 bf bd 19 80 6b bd 4d 2e e8 bd
       -0.116603784 -0.09337112 -0.05749521 -0.11336956
0003f0 55 e4 87 bd 8d 94 ef 3b c0 fa 2c 3c 15 9f 9c 3d
       -0.06635348 0.00731141 0.01055783 0.0764753

fc1.bias f4 [128]
000000 79 a8 f3 bb a2 bd 0b bd 44 95 a7 bc 57 4d 04 3e
       -0.007435855 -0.034116395 -0.020456918 0.12920128
000010 93 85 1a 3d 56 76 2c 3d f9 de 28 3c db e9 e1 3c
       0.037725043 0.04210504 0.010307067 0.027577331
000020 dd cb 86 bd 3e 0f d6 3b 49 35 02 3d 0d cb 03 bd
       -0.065818526 0.0065325787 0.031789098 -0.032176066
000030 ba 73 83 bd 73 dd 4a bd e8 ae 77 3b f8 9b 6b bd
       -0.064185575 -0.049527597 0.0037793461 -0.05752179
000040 29 d7 26 3b 4f b4 d6 3d 4b 09 f4 3d 3e 1c fa b9
       0.0025457835 0.1048361 0.11915835 -0.00047704758
000050 f1 ea a4 bd aa 73 23 3c d1 96 26 3c 60 8e 87 bd
       -0.08052624 0.009976307 0.010167793 -0.06618953
000060 2e dd d5 3c d0 e8 cf bc 86 43 d3 3c 09 fc 17 bd
       0.026106443 -0.025379568 0.025789034 -0.037105594
000070 98 bc 36 bd 39 88 a9 bb 02 ea 17 3b 2e 47 3f 3d
       -0.04461345 -0.0051737097 0.002318025 0.04669874
000080 7e 51 2f 3d d3 5f 55 3d cd 46 68 bd 91 89 27 3c
       0.042802326 0.05209334 -0.056708146 0.0102256695
000090 90 55 0d 3c 26 b1 f6 bb 9f 5d ba 3c 63 ba 6b 3b
       0.008626357 -0.007528442 0.02274972 0.003596925
0000a0 aa 5c 4e bd 5a 0a 42 bc 05 b0 2b 3c 03 32 83 ba
       -0.05038134 -0.011843288 0.010478978 -0.0010009411
0000b0 d7 fd 16 bd 45 86 b8 bc a7 8d 33 bd 9e 5d c7 3c
       -0.036863174 -0.022524962 -0.043836262 0.024336632
0000c0 7a 08 98 bd 61 54 42 bd ca 0e 54 bd f1 15 26 bd
       -0.07423492 -0.04744375 -0.051771916 -0.04054827
0000d0 f3 df 38 3c 3b 1e 40 3a dd f5 de 3b f4 75 8c 3d
       0.011283862 0.00073287234 0.0068042115 0.06858435
0000e0 35 33 07 3c 16 0b 94 3c 7e 72 15 3d dc da 81 3b
       0.008251955 0.018071692 0.03648614 0.0039628576
0000f0 a3 cb 0b 3d 70 05 07 3d ec 82 92 3c 16 61 05 bd
       0.03412975 0.03296417 0.017884694 -0.03256329
000100 ca e8 b4 3c da 45 49 bd 5d 68 d2 bb 1d 73 67 3c
       0.022083659 -0.04913888 -0.0064211325 0.014126566
000110 66 e9 fc 3c 98 d8 48 3c 95 0d 14 3e bf 7e c4 bc
       0.030873012 0.012258671 0.14458306 -0.023986218
000120 2e 19 2a 3d 28 ec 01 bd 78 5e c2 3d 37 9f fe bc
       0.04152792 -0.031719357 0.09490675 -0.031081779
000130 02 16 09 bd 9a 44 f0 3a 45 5f 9c 3c 88 40 cc bc
       -0.033468254 0.0018330992 0.019088397 -0.024933115
000140 f1 83 5f bd a2 3d 59 3d 7c 12 f1 bb 0c 47 11 bd
       -0.05456919 0.053037293 -0.00735694 -0.035468146
000150 6c a2 a9 3a 4a 8c b0 bc 4b d2 6b 3d 0a 28 fc 3c
       0.0012942082 -0.02155127 0.057573598 0.03078081
000160 e2 f1 2e 3e f6 b3 ac bd f6 ad 1d 3d 8c 1b a3 3d
       0.17084458 -0.08432762 0.03849598 0.079642385
000170 c6 20 9c bc 07 9e 75 bc 39 fe 86 bb bc c2 2f bd
       -0.019058596 -0.01499129 -0.004119661 -0.042910323
000180 e5 32 06 3e 86 c3 9b bd 4e 69 d6 3c 15 0a 1d 3b
       0.13105352 -0.076056525 0.02617326 0.0023962308
000190 67 92 ca bd 79 ad 02 3d c3 31 5d bd e9 92 cc 3d
       -0.09891205 0.031903718 -0.054002535 0.099889584
0001a0 f1 9c d6 bc 02 6a 8a bb b6 9b 20 bc 31 78 95 bd
       -0.026197882 -0.004224063 -0.009802749 -0.07298315
0001b0 91 94 d0 bb 77 99 67 3d a5 9d bf 3d dd 6e 51 bc
       -0.0063653667 0.05654284 0.0935624 -0.0127827795
0001c0 85 60 03 bd 83 34 37 bd a2 12 61 bd ae ae be 3c
       -0.03207447 -0.044727813 -0.05494941 0.023276653
0001d0 bf e3 be 3c 5b 52 71 3d d4 2d b7 bc 02 48 eb bc
       0.023301957 0.05891643 -0.02236072 -0.02872086
0001e0 66 85 e3 bc 13 a9 06 3d 57 2b d8 3c bb 8a 53 3c
       -0.02777357 0.032876085 0.026387854 0.012911494
0001f0 af e9 ae 3d ad e1 b3 bd 76 8a b4 bd 50 b8 9f bc
       0.08540665 -0.087832786 -0.08815472 -0.019497067

fc2.weight f4 [10, 128]
000000 86 f9 bf bd 78 da 97 bd bb e8 e0 bc 21 75 87 3d
       -0.09373765 -0.074147165 -0.027454725 0.066141374
000010 ac 59 90 bd a6 38 c4 bd 87 30 87 bd 77 34 1a 3e
       -0.070483536 -0.09581117 -0.06601053 0.15059076
000020 45 e7 1e bd 8a ab 80 bd 45 73 12 3e e2 eb ae bb
       -0.038794775 -0.062827185 0.14301784 -0.005338178
000030 8a ed b5 3c 79 7d 1c 3c e7 52 b7 3b 0d 93 d8 bd
       0.022207994 0.009551399 0.0055945995 -0.10574923
000040 31 78 50 3d 00 4d 49 3e 4a 83 14 3e c8 51 32 bd
       0.050895873 0.1965828 0.14503208 -0.043535024
000050 f4 65 49 bd 5e 9e 0c 3d 64 e5 9c bd f5 7e e9 bc
       -0.049169496 0.03433072 -0.0766094 -0.02850292
000060 67 9a 99 bd 4e 49 cd 3d 0d 72 46 bd 47 34 8b bd
       -0.07500153 0.100237474 -0.04844861 -0.067970805
000070 79 e2 e6 3c 1f 37 77 3d 9f 67 28 be e8 fe bd bd
       0.028184162 0.060355302 -0.16445778 -0.09277135
000080 8a c2 a1 bd 67 35 fa bc 5d bf ad bd 28 8a ec bd
       -0.078984335 -0.030543042 -0.08483765 -0.11549789
000090 39 7e 4f bd 90 c8 aa bd f5 fe f2 bd 21 3a 93 3d
       -0.050657485 -0.083390355 -0.118650354 0.071888216
0000a0 53 59 9c bb 2c f0 17 bc 07 76 b4 bd f7 2e d7 bb
       -0.0047713905 -0.00927357 -0.088115744 -0.006566878
0000b0 c7 53 93 bc b4 8d 25 be 97 0f 56 3d 2d 1f 9f 3d
       -0.017984284 -0.16167337 0.05226096 0.07769618
0000c0 7a 35 b0 bd 76 38 e4 3c 8c 6f 8c bd 17 d5 33 3d
       -0.0860395 0.027858954 -0.068572134 0.04390439
0000d0 14 fa 86 bd 64 a0 6c 3d fd 88 c2 bc 37 70 5e 3d
       -0.06590667 0.057770148 -0.023746962 0.054306235
0000e0 ef 4f 90 bd b9 f5 05 bd 43 62 f6 bc 88 e7 82 bd
       -0.07046496 -0.032705043 -0.030076152 -0.06391817
0000f0 98 8d bd bd e8 a9 90 3d 2d bc ef 3d 69 df 82 3d
       -0.092555225 0.07063657 0.117058136 0.06390268
000100 6b a1 05 be ec a1 bd bc 4b 54 3d be d4 c2 fa bc
       -0.13049857 -0.0231485 -0.18489186 -0.03061048
000110 b3 f6 b1 bd 40 fb b7 bd f5 dc 0a bd 72 02 69 bd
       -0.08689632 -0.08983469 -0.033902127 -0.056887098
000120 b2 24 e0 bd 46 14 f8 3c 69 3c 29 3e 3c cf 2d bc
       -0.10944499 0.030283105 0.16526951 -0.010608491
000130 fb e6 a6 3c d3 42 1c 3e 29 70 02 bd 5a a4 cb 3b
       0.020373812 0.15259866 -0.031845246 0.0062146606
000140 8a 33 13 be 3e 77 94 3d 0f 2d 8f 3c c8 60 79 bc
       -0.1437513 0.07249306 0.01747754 -0.015220828
000150 44 0e 3c bd 15 ee 95 3c d9 48 fc 3c ed 3f ab 3c
       -0.045912042 0.018302003 0.030796455 0.020904506
000160 2d f9 2f 3c 2d eb e1 bd bf d1 0f 3d e5 61 6c 3e
       0.0107405605 -0.11031184 0.03511214 0.23084219
000170 ee 47 4b be 9c d8 04 be 7f 7a 3f 3d d9 45 be bd
       -0.19851658 -0.12973255 0.04674768 -0.09290666
000180 fb 65 3f bc 95 b1 30 be 36 6e 09 bc d8 06 95 3d
       -0.011682029 -0.17255242 -0.008388093 0.07276696
000190 67 f1 7f bc f9 d6 88 bd 5d a3 e6 bc db bc 7e 3d
       -0.01562152 -0.06681628 -0.02815407 0.062191825
0001a0 57 1e 86 bd 81 12 2d be a4 af cf bb 05 5d 81 bd
       -0.065487556 -0.1690159 -0.0063380767 -0.0631657
0001b0 5f 9a 60 bc 3d 35 04 3e 55 e6 96 3b a3 31 ee bd
       -0.01370868 0.12910934 0.0046050944 -0.11630561
0001c0 d4 2a 88 be b7 b3 81 bd d1 a4 6f bc d9 49 98 bd
       -0.26595175 -0.06333106 -0.014626698 -0.0743596
0001d0 fd 81 37 be 10 7e ee 3c a8 61 a7 bd 1c 3e 18 bd
       -0.1792068 0.029112846 -0.08172923 -0.037168607
0001e0 26 03 16 bd a5 bd 3f bd 91 30 48 be 75 82 f6 3d
       -0.036624096 -0.04681172 -0.19549777 0.120366015
0001f0 c5 bf 38 3e d5 3f 06 bd 3f a8 7b bc f9 71 81 3b
       0.18041904 -0.03277572 -0.015359937 0.003950354
000200 11 58 ac 3d f6 8f b9 bd 8a 92 83 3d 10 ce d7 bb
       0.08415235 -0.090606615 0.064244345 -0.006585844
000210 92 2d e1 3c 3a 63 54 bb ef 4f 7a bd 6a 52 8e bc
       0.02748755 -0.0032407776 -0.061111387 -0.017373282
000220 e6 90 ee 3c 62 7a e4 bc 4f 6a b8 bb 13 6e 8a 3d
       0.029121827 -0.027890388 -0.0056279073 0.06759276
000230 d3 3c 18 bd dd b3 b6 bd 60 eb 36 3c 8a 18 d4 bd
       -0.03716738 -0.08921025 0.011164516 -0.10356243
000240 5b 1b 10 3d da c4 db bd 14 76 a7 bd ad f1 1b be
       0.03518234 -0.10730906 -0.081768185 -0.1522891
000250 2b 31 5c bd 14 e0 a4 bd 50 9d 45 bd 88 47 3f bd
       -0.053757828 -0.08050552 -0.048245728 -0.046699077
000260 d1 e9 d8 bd 1f dd 9e bd 47 6c b8 3d a1 81 fd 3c
       -0.10591472 -0.07757019 0.09005027 0.030945601
000270 6f 4b 89 bd 76 72 82 bb 10 aa 19 bd 75 fb 40 bd
       -0.06703841 -0.00398093 -0.0375157 -0.047114808
000280 12 65 8f bc b4 fc b8 3d 6f f6 b7 bd f7 24 59 3d
       -0.017504249 0.09032574 -0.0898255 0.053013768
000290 fe c6 3c 3d 03 ef 98 bd 85 2e 8e 3d 1e 91 77 3d
       0.04608821 -0.07467463 0.06942467 0.06044113
0002a0 00 40 1b bd d7 2b cf bc 6d 26 af bd b2 a7 70 3d
       -0.037902832 -0.02528946 -0.08552251 0.058753677
0002b0 1c 06 b6 bc f9 30 64 bc 1a 7b a0 3c 1f ab 1b bc
       -0.02221971 -0.013927692 0.01958995 -0.009501248
0002c0 75 8f 9e 3d 7d 59 79 3b f7 ed a0 bd 5b d4 c5 ba
       0.07742206 0.0038047724 -0.07857888 -0.0015093194
0002d0 f2 a1 b2 3c 93 d4 37 bd 8c 98 a6 bd dd a1 52 bd
       0.021805737 -0.04488046 -0.08134565 -0.051423896
0002e0 fe 45 18 bb 34 66 5a 3d 18 e3 5d bd b7 10 09 bd
       -0.0023235078 0.053320125 -0.05417165 -0.033463206
0002f0 01 2f 65 bd 88 61 45 bc 70 77 bc bd f0 c5 02 3d
       -0.05595303 -0.012047179 -0.092024684 0.03192705
000300 72 a1 e4 bd 9d 5e 23 3d 0b 2c 7a bc e7 0e 82 bd
       -0.11163606 0.039885152 -0.01526929 -0.06350499
000310 28 2f 80 3b a0 b8 90 3c 94 c0 6c 3c 9b 8b eb 3c
       0.0039118715 0.017666161 0.014450211 0.028753093
000320 b2 32 da bd a6 c6 22 3c 91 10 97 bd f6 66 9a 3b
       -0.106542006 0.009935057 -0.07376207 0.004711981
000330 24 25 c0 3a e2 d0 b9 bd 21 79 63 bd f3 96 a4 3d
       0.0014659506 -0.09073044 -0.05553544 0.08036604
000340 dd 7c 7d 3d a1 32 b0 bd 8e e2 c8 3c 10 67 69 bd
       0.061886657 -0.08603407 0.024522092 -0.056983054
000350 90 3d 8a bc 44 3d 30 bd 43 07 86 bd e2 16 42 bd
       -0.016875058 -0.043027177 -0.06544354 -0.047385104
000360 87 f8 2d be 07 cb 03 3d ad 64 a2 bc c8 1d ac bd
       -0.16989337 0.032176044 -0.019823397 -0.08404118
000370 c8 08 54 3d b5 f2 3d 3d ad f3 83 bd cc 26 de bd
       0.051766187 0.04637404 -0.06442962 -0.10847244
000380 46 f9 60 3d 88 7d 5e 3c 99 9d 1c bd 7e 16 b0 bd
       0.054925226 0.013579734 -0.038236234 -0.0859804
000390 4e 27 9a 3d 84 bc c4 3c 27 d8 4c 3c 77 fc 99 bd
       0.07527028 0.024015673 0.012502707 -0.07518857
0003a0 2c 33 b3 3c e8 ee 7a 3d 64 a5 54 bb a0 5f 12 bd
       0.021874987 0.061262995 -0.0032447213 -0.035735726
0003b0 4c e8 87 bd f6 d3 05 bd 33 bd 06 be 5e 31 5b 3d
       -0.06636104 -0.032672845 -0.13158111 0.053513877
0003c0 69 4f 09 3d ec 6c 1d 3d 6b 4f 2a bc 9e e3 46 3d
       0.033522997 0.038433954 -0.010394911 0.048556916
0003d0 44 8e ea bc 22 e3 f9 bd 7a db a7 3c 51 eb 1e 3d
       -0.02863229 -0.12201525 0.020490397 0.038798634
0003e0 4f fe 56 bd 8f 9e 24 bb 8b a5 90 bd f5 21 e0 bc
       -0.05248862 -0.0025118922 -0.07062825 -0.027359942
0003f0 8b ba e7 bd 95 5f 4b bd b2 c4 1b be 9e b3 95 bc
       -0.11314877 -0.0496517 -0.15211752 -0.018274125

fc2.bias f4 [10]
000000 71 48 9c 3b 39 00 38 bd dc a6 a3 be c6 68 70 3e
       0.004769378 -0.044922087 -0.3196324 0.23477468
000010 f2 63 9e 3d 59 16 a2 3d 0f 19 85 3d 0a 34 2f be
       0.07733907 0.07914419 0.0649892 -0.17109695
000020 b9 55 64 3d 87 28 16 bc
       0.055745814 -0.009164936
